zynq/python/model_weights.npy (npy, 20560 bytes, 1 tensors)

array f8 [10, 256]
0.0 -0.07612284004286864 0.010382242443568156 0.0026710650040182326 0.00027880916958620834 0.0004635614468666547 7.328641182431387e-05 0.0008326087304145984
-2.892170441255545e-05 0.000578630427475222 0.0007787824895402517 0.001116346950870438 0.0011173175503596112 0.0015524807654005617 -0.02469813678300393 0.0
0.03977583472164879 0.002032569648042788 0.00016115919722025583 -0.0012566047658293768 0.0005002013445370503 -0.0006662082078279922 0.00019887114836451947 -0.00024334691154520195
-0.00016253335645956106 -0.0005491362166501799 -0.000502222469031371 -0.0008615876589585292 -0.000444721774363325 -0.00046160501337149317 0.0018953425336319923 -0.000605755953802744
0.013231189010421881 -0.0026577966940358 -9.238259449066524e-05 -0.00013389050216323868 1.3110541662179672e-05 -0.0001842340243443012 -0.00011620652241288805 9.09282405514124e-05
-1.757533470360162e-06 8.825704362726257e-05 -9.050762082278381e-05 0.00011784863143279071 -0.00023630584268651935 -0.00037000679074304237 -0.0002186228066201754 -0.0008508451851980466
-0.02936942220148318 0.0012778300692325526 -0.00014481862948709286 4.301112580045297e-05 -7.155116968864132e-05 -0.00012737759633313643 -0.00013505380256508047 0.0001216514641882182
5.063764558394574e-05 4.1974433168364415e-06 8.144266690180639e-05 -9.708232336688099e-05 0.0001197611886021916 -0.000391859400279843 -0.00020805342458705075 -0.00048733261782314647
0.0039498930739111605 -0.0005597059067551796 4.780963952467109e-06 4.057241771656451e-05 3.368864002030971e-06 6.945081198179115e-05 7.2538824060282604e-06 9.257668492562067e-05
0.0001353271297042329 0.00015140195413571373 0.00015861408165081465 -3.0233920555716026e-05 -3.378657329971591e-05 -9.236912464902714e-05 -0.000948941034992263 0.000686458302210784
-0.0008200376358437659 0.00011393450436726796 -0.00012948944680036585 8.18020060093846e-05 -5.529920440015819e-06 2.970605028526927e-05 -6.684546709261268e-05 5.6400662494272666e-05
0.0002468894598843966 0.0001743645020532181 7.630080785942523e-05 0.00025580439199344475 -4.5561284774782456e-05 0.00023443692151298422 -0.0013717672108874025 0.00032899997467967986
0.00027741854560286424 -0.00037122894134826033 -1.6792486951235263e-05 -0.00014443591077980565 7.552188685341485e-05 8.014318730879676e-05 8.553844110555851e-05 2.923795140974736e-05
-0.00020533260819974455 -1.0045097891103689e-05 8.143860553399895e-05 0.00033079826791075303 0.0002084746639317324 0.0005659245666678924 -0.0006185975713662121 -0.0021570010031517414
0.000354970382196326 0.0005070447874608766 -0.0006047503651031523 0.00017613467245417128 -0.00011519147852823416 4.088171743285418e-05 -2.2428224345870584e-06 -0.0001594949114467602
-0.0004199285146971544 -0.0001675630109107125 -0.0003962469330425132 -0.00018843774599285154 0.00011658778773228591 0.0007267863909800859 -0.00019762114251895588 0.0003798048026370267
-0.00018952238077291948 -0.0004974294027536238 -0.00011180172939043674 0.00013930245102020884 0.00013279897719795355 0.00029567965157375846 8.340634814744683e-05 -0.0002985802721256333
2.2870099593421214e-05 -0.00020249342942287854 -0.0002600831474072901 2.91989949459734e-06 0.0003703762077107812 -0.00014529170952978928 -0.0003160438197369429 -0.0006432322660985927
0.00701597695672725 -0.0011838986062839491 0.00014869476201261918 0.0001408297072817474 4.9984840987468436e-06 0.00018482453969932494 -9.661410231424626e-05 -0.0003044840171750541
-0.0002887540397326254 -0.00029057144987168954 -8.709383450631262e-05 0.0002531514377919404 -0.00026898392902584246 0.000193518011868571 -4.037537196788323e-05 0.00038622856563238063
0.0008652255960588255 -0.0009042856223842331 -0.00012009639235096402 0.00019254622522942748 0.00021781214112257053 4.667204062217687e-06 2.01642439648531e-05 -0.00015366671584408654
-0.00017126293527958044 1.324549062744535e-05 4.667771055548137e-05 -0.00017380858452523107 6.3024492511731e-05 -0.0001235722353611333 5.263381656026933e-05 -0.00044210094151745565
0.00850805206864553 -0.00044874354198253273 -4.877456251025088e-05 -0.00016437273679191793 8.846942207810239e-05 0.00011617385022369738 3.284528061915116e-05 0.00015817313548567458
8.31286109970242e-07 -6.414242596536084e-05 -3.300342033084248e-05 1.5692580890144764e-05 2.1582556901226378e-05 -0.0002006222609587254 0.00014807017657934472 -0.001176653589027995
-0.007341093521194738 -1.0962289844873488e-05 -8.496964455110848e-05 0.00016635716672016475 -0.0001321306251158508 0.00010335390504482557 0.00012989376942915435 -5.1084515301844625e-05
0.00013560940885933207 -6.604523696994533e-05 -9.927644726213697e-05 -9.926043592734115e-05 4.214888160388421e-05 -0.00011403733245392399 0.00011910007017944396 0.0034974879221667384
0.0011987893778262412 0.0006286356117755081 -0.0005219476430770567 -8.979385890303591e-06 0.00010304415772102125 1.5521466105361758e-05 7.724617260780016e-05 0.00019245581992228785
5.1757189474595315e-05 0.00015959859869323686 -1.9914189969827673e-05 -6.188799661743444e-05 -0.00020313416297647693 0.00016474269224285663 -0.00022692977804042674 -0.003516308327099828
-0.10695624130381902 0.003842485918249796 -0.0002648411533755676 -0.00013015404246660052 -0.00041492336153913775 -0.00026062753699843745 -0.0003619386627700363 -0.00037713111491852305
-0.00018385473829053605 -0.00016866600425551701 5.337898746187961e-05 -3.4564290038259617e-06 0.0001387044400278206 -0.0003816921642718763 -0.001272493223887215 0.0060518753236245
0.0 -0.01180760015056614 0.00010251120336838608 -0.0008606566640023759 -0.00028084360631390015 -0.000659232680863513 -0.00027535005308683484 -0.000314534045298553
-0.00046891659027147335 -0.0003637069489217813 -0.0005716047518995294 4.313289416674132e-05 -0.000958113023403614 -0.0017760949412619958 -0.0007507243320085689 -0.026931141744917966
00000000: 0000 0000 0000 0000 7177 7654 c97c b3bf
00000010: d9bd 08fe 4843 853f c5d5 ce1a a1e1 653f
00000020: cefe e343 a445 323f e8bf 0441 4561 3e3f
00000030: 3ed3 d5f7 2a36 133f db44 3da2 6d48 4b3f
00000040: ea4d bf64 9c53 febe 20d5 9861 e7f5 423f
00000050: 2801 61a9 e684 493f 2d51 4769 4c4a 523f
00000060: 3e78 a295 5e4e 523f 5437 5d87 936f 593f
00000070: 8342 05e7 774a 99bf 0000 0000 0000 0000
00000080: fee5 998a 7f5d a43f 2934 4985 9ba6 603f
00000090: 1e8f 88f6 9a1f 253f af14 e317 9596 54bf
000000a0: 3f1a 4635 fe63 403f 7e6a 833b 8fd4 45bf
000000b0: 29a6 1c28 0211 2a3f 7197 a70d 5ee5 2fbf
000000c0: c451 a8e6 b64d 25bf 274b b80b 7dfe 41bf
000000d0: 2f16 378a f274 40bf 33c5 af68 853b 4cbf
000000e0: 76a3 097a 3125 3dbf 5a43 a46f 7240 3ebf
000000f0: f831 968c a40d 5f3f fa7b 6601 73d9 43bf
00000100: 4b16 b220 f418 8b3f 556c 2bbc cdc5 65bf
00000110: 7feb 62e3 b037 18bf ee59 f4a7 9e8c 21bf
00000120: e1d5 2020 ab7e eb3e c73e ff37 de25 28bf
00000130: 0b2d 77da 7c76 1ebf ed32 1e47 17d6 173f
00000140: 8048 a37c 8c7c bdbe ed23 ce76 d422 173f
00000150: 7aeb fc15 ddb9 17bf b5b5 4f12 b0e4 1e3f
00000160: 598f 7dbb 1bf9 2ebf b32e c710 af3f 38bf
00000170: 0caa f39b c3a7 2cbf 3aff 471f 68e1 4bbf
00000180: 9b5f 6e8f 0413 9ebf 285a dc96 9bef 543f
00000190: 134c 148e 4efb 22bf 4fda 8707 db8c 063f
000001a0: 0bec 36bc b7c1 12bf 68a8 9238 15b2 20bf
000001b0: 1462 9754 a7b3 21bf 9fc8 a43d e4e3 1f3f
000001c0: 7e63 fb40 788c 0a3f 1974 f66e f89a d13e
000001d0: 38c2 055d 8659 153f 39d6 929d 1573 19bf
000001e0: c791 b28d 0965 1f3f d59e 0f4f 4fae 39bf
000001f0: b76c 104f 1d45 2bbf f91c e4a7 15f0 3fbf
00000200: 9bcb 3359 c32d 703f 8a5d 4e48 2757 42bf
00000210: e935 4b5d 850d d43e 86eb 5ea8 8945 053f
00000220: 21ab 4192 9442 cc3e 7971 54dd c334 123f
00000230: f31c 5303 cc6c de3e 268e 2556 b744 183f
00000240: 44a3 5331 d3bc 213f 7d98 14e2 34d8 233f
00000250: 504a 3596 34ca 243f 00ac 4433 dbb3 ffbe
00000260: ff5c a5d1 c1b6 01bf 7179 657a c936 18bf
00000270: d41d 065b 4b18 4fbf f6ce a1fa 6d7e 463f
00000280: 227e e969 f9de 4abf 7d44 6de1 03de 1d3f
00000290: 42d1 dce0 f1f8 20bf 8281 21c3 a371 153f
000002a0: c82c c4f4 b431 d7be 4d63 433b 2826 ff3e
000002b0: 9f6c 5461 ec85 11bf e753 d001 f891 0d3f
000002c0: 2511 eb27 1e2e 303f 7c30 f5aa b3da 263f
000002d0: 9ef1 cce5 7500 143f a0d6 6e7f afc3 303f
000002e0: 9c1d 17d3 21e3 07bf 62f8 5dd2 65ba 2e3f
000002f0: 483e bed3 9b79 56bf f1c4 b221 b48f 353f
00000300: 97ab a694 4f2e 323f b452 9429 3054 38bf
00000310: 0135 98ea b29b f1be 3bdb bd06 77ee 22bf
00000320: c7d6 fc22 30cc 133f 950b 5579 5102 153f
00000330: 2c36 783a 636c 163f cf03 c2b8 80a8 fe3e
00000340: 36ec 8dac d1e9 2abf a98c debd eb10 e5be
00000350: 641f f096 4059 153f c41a 04be dfad 353f
00000360: 76e4 2dba 3f53 2b3f a36a bfc0 518b 423f
00000370: 55c9 502b 2c45 44bf f0df 8218 8fab 61bf
00000380: fbae bd2e 6a43 373f a6e7 ce63 669d 403f
00000390: d395 2a85 03d1 43bf 2af4 d550 1916 273f
000003a0: c200 4088 5e32 1ebf 1a6f 721d 0d6f 053f
000003b0: d350 45ac 6cd0 c2be d3e3 69db c2e7 24bf
000003c0: 9b85 be3c 3b85 3bbf 0552 c34d 7bf6 25bf
000003d0: 6ecf 599e ebf7 39bf 287e a9e9 ebb2 28bf
000003e0: b1c4 12f1 1290 1e3f e65e e5e3 b9d0 473f
000003f0: d81c 30b0 10e7 29bf 36da c834 11e4 383f
00000400: 4369 c4da 50d7 28bf caa2 2982 bd4c 40bf
00000410: 7889 e115 e34e 1dbf 194d 59f1 3642 223f
00000420: 5ffc 2b87 fe67 213f de89 006f ae60 333f
00000430: 3a4b 7926 4edd 153f efd2 0681 5891 33bf
00000440: a0db e646 25fb f73e 30bb 6550 8d8a 2abf
00000450: 144d c39c 780b 31bf 809f 1eb9 6f7e c83e
00000460: bf92 07b3 e145 383f 344c 1848 2e0b 23bf
00000470: b500 b0de 55b6 34bf 6ad2 f7c5 d213 45bf
00000480: d414 42f9 c8bc 7c3f 5fe3 ed72 a165 53bf
00000490: 3eff a447 5e7d 233f c198 62f9 7575 223f
000004a0: 7122 d2d8 14f7 d43e b4d9 feb4 ae39 283f
000004b0: 2a4b 9ba3 a953 19bf 871d 5be5 64f4 33bf
000004c0: 3cd9 4028 7dec 32bf 556a d5df fa0a 33bf
000004d0: 6b39 fdae c4d4 16bf 69c1 7025 2d97 303f
000004e0: fa16 a62d cda0 31bf d298 7710 635d 293f
000004f0: 86c0 a237 172b 05bf 4a5d e40e d74f 393f
00000500: 890f c2d1 095a 4c3f 0931 5296 b2a1 4dbf
00000510: eb15 604f 887b 1fbf 0c5b 0c7b c73c 293f
00000520: 1d8c ab0b 908c 2c3f d1dc ad48 5f93 d33e
00000530: f851 464b cc24 f53e a2d5 be09 3324 24bf
00000540: de6f 7e69 a172 26bf 5d34 bc5e 1ec7 eb3e
00000550: 3e16 1cec f978 083f f8b3 625f 0cc8 26bf
00000560: f7c2 6789 8085 103f a7b7 4c6b 6532 20bf
00000570: 3ff5 932a 6498 0b3f 8a62 d915 39f9 3cbf
00000580: 6598 196b ab6c 813f 3797 4cd6 aa68 3dbf
00000590: 9429 f534 6992 09bf 68be c80e 6f8b 25bf
000005a0: 0128 1c19 1531 173f eb68 a88c 4b74 1e3f
000005b0: efa4 aa3f 6b38 013f d329 56e3 68bb 243f
000005c0: 4235 e37c b1e4 ab3e 470f bb7c 86d0 10bf
000005d0: 8ff7 47e3 a44d 01bf 5b56 89f2 7174 f03e
000005e0: ce10 5204 86a1 f63e 26fe 6d19 c44b 2abf
000005f0: 746d c021 6968 233f 8a0a c02b 3e47 53bf
00000600: 9650 72c9 b111 7ebf cdff d8a4 55fd e6be
00000610: 3e8b c460 3746 16bf 0e6b 582e 05ce 253f
00000620: 3e7f 666d 9151 21bf 5fca 7d91 f617 1b3f
00000630: 70dc b9fb 8206 213f 1ae5 9694 72c8 0abf
00000640: 47da c0f3 4bc6 213f 48dc 0788 3850 11bf
00000650: 501b 8460 5406 1abf 6cc0 eb4d 4105 1abf
00000660: 05ab 5e8b 2019 063f 5174 2274 eae4 1dbf
00000670: 66fc 1fa0 ab38 1f3f deb5 cd87 c3a6 6c3f
00000680: e027 0b4b 16a4 533f 0400 64b2 6099 443f
00000690: eea5 5307 6a1a 41bf 9e2c 4b66 c5d4 e2be
000006a0: 44c6 5a26 2d03 1b3f db59 6807 8346 f03e
000006b0: 4b12 ef23 e73f 143f 90e9 ace7 be39 293f
000006c0: 0cc4 2f7d bb22 0b3f e076 1486 3deb 243f
000006d0: 4d80 dfb6 ace1 f4be fe3e 9aaf 3b39 10bf
000006e0: 88e2 612c 0da0 2abf 209e 6cf3 d897 253f
000006f0: 54c4 49f3 7fbe 2dbf 1dbd 8fa8 3bce 6cbf
00000700: c3c3 80f6 7b61 bbbf 52cc 55eb 467a 6f3f
00000710: 4269 a617 4c5b 31bf 112b 30b6 3e0f 21bf
00000720: 97ef a544 4231 3bbf 73ca 72bf 9a14 31bf
00000730: c7e1 41b8 52b8 37bf 158e 0cce 35b7 38bf
00000740: ddf1 242d 2419 28bf f166 c7f1 7d1b 26bf
00000750: 215e 250b 68fc 0b3f 2f4e adf0 9ffe ccbe
00000760: a3fd 4411 262e 223f f710 d95c bb03 39bf
00000770: c587 fb31 39d9 54bf 00d0 82e9 d9c9 783f
00000780: 0000 0000 0000 0000 be6a ed43 952e 88bf
00000790: 8aca 5210 69df 1a3f 46f8 cb1c b633 4cbf
000007a0: ac8a ba1a c667 32bf f67a 0267 0b9a 45bf
000007b0: 0de5 1379 9b0b 32bf 5e1e 2370 019d 34bf
000007c0: 37e7 756b 1dbb 3ebf 1c43 7173 fdd5 37bf
000007d0: 674f 9adb f7ba 42bf a65f 68f5 329d 063f
000007e0: af5a fa0c 3c65 4fbf 97e8 fc6b 7b19 5dbf
000007f0: 0b1e 263a 8899 48bf a448 2754 d693 9bbf
